pretrained_model/model/body_spatio_50epoch.pth (torch, 140893 bytes, 29 tensors)

Conv1D_1.bias f4 [64]
0.020067008 -0.010012011 -0.02849378 0.04074767 -0.0023113806 -0.15874259 -0.03990947 0.07062312
-0.116886474 -0.03506529 -0.20282553 0.007249552 -0.14752209 -0.025179166 0.011347417 0.08538539
0.5605307 0.002854132 0.3380642 0.18914126 -0.19263446 0.6611131 0.6337726 0.4420307
-0.17930226 0.00352505 -0.0032702878 0.20474085 0.51024383 -0.5059229 0.13533695 0.6852962
0.02696717 -0.036762632 -0.20248464 -0.054418735 -0.3260696 -0.30645993 -0.03156436 -0.03209248
-0.03218988 -0.024103364 -0.025018312 -0.05461488 -0.053332895 -0.14089254 -0.036108352 -0.18167563
0.06930862 -0.046811428 0.048811372 0.027998563 0.06493532 0.0007527994 -0.03871699 0.015598541
-0.031569406 -0.044003095 -0.05750454 -0.031692103 -0.053967033 -0.02474103 -0.1361089 -0.022321614
00000000: 9163 a43c 6b09 24bc ca6b e9bc 07e7 263d
00000010: 887a 17bb 6b8d 22be 1d78 23bd dba2 903d
00000020: 2d62 efbd 9fa0 0fbd 7fb1 4fbe a68d ed3b
00000030: 0810 17be 8a44 cebc 84ea 393c 89de ae3d
00000040: f17e 0f3f 640c 3b3b c016 ad3e 3fae 413e
00000050: f841 45be b53e 293f ec3e 223f d951 e23e
00000060: 039b 37be 8604 673b 5352 56bb 96a7 513e
00000070: 579f 023f 2a84 01bf c595 0a3e 926f 2f3f
00000080: 41ea dc3c 6a94 16bd 2258 4fbe 2ee6 5ebd
00000090: 98f2 a6be 51e8 9cbe a149 01bd 6873 03bd
000000a0: 89d9 03bd 6b74 c5bc 34f3 ccbc dab3 5fbd
000000b0: 9873 5abd 2246 10be 5ae6 13bd 2d09 3abe
000000c0: aef1 8d3d 57bd 3fbd 6fee 473d 3e5d e53c
000000d0: cffc 843d 8357 453a b595 1ebd 0691 7f3c
000000e0: ec4e 01bd 973c 34bd e189 6bbd 94cf 01bd
000000f0: 890c 5dbd b3ad cabc 2260 0bbe d1db b6bc

Conv1D_1.weight_orig f4 [64, 1, 3]
0.20350707 -0.09920611 -0.09537659 -0.1324147 -0.045236163 -0.14998648 -0.02419619 -0.2778866
0.1461068 -0.10466579 0.05111598 -0.006335232 0.1611998 0.1614182 -0.15904118 -0.066525735
-0.13000289 0.13012108 0.015071065 0.03366728 -0.011810918 0.07437604 0.10265429 0.098046504
0.09510212 0.08469714 0.118731424 0.004299644 -0.0023212186 0.0019860812 -0.02554092 -0.07709338
0.08858118 0.14401482 0.0838214 0.14868295 -0.0030511732 0.03573584 -0.06017688 -0.0042750277
0.005104466 -0.0032067054 0.18323512 -0.011489015 0.16851695 -0.2367676 0.14820288 0.003020912
-0.32937002 -0.21170805 -0.14586188 0.2647591 -0.5188104 0.24916618 0.14244957 -0.18048
-0.36679348 0.3446693 -0.03970844 -0.5149977 0.08398524 0.083930686 0.04895153 -0.37432268
-0.24627064 -0.20269547 -0.3514682 -0.2359544 -0.19419944 -0.079216555 -0.2159826 -0.2525035
-0.0006469379 -0.00037741123 -0.0011169461 0.27906024 -0.54496366 0.26110086 0.29258347 -0.568849
0.27042344 0.24600452 -0.10091397 -0.39264733 -0.32537475 -0.16963935 -0.108394325 -0.39401606
-0.4154146 -0.3865095 0.34012794 0.015095545 -0.51646006 0.19116658 0.021781402 -0.04539247
0.027237117 0.06329205 0.00951761 -0.0052605337 0.0027633903 -0.00490909 0.14436659 -0.020422459
-0.16381001 -0.0017953052 -0.00035530797 0.010158402 -0.11090932 -0.26402822 -0.1375299 0.21301009
0.14250998 0.016990097 0.0006034947 -0.00014628704 0.0014747599 0.003585622 -0.0041405302 0.0010430105
0.00068965513 -0.0023064946 -0.007596871 0.010311693 0.008746308 0.016287174 0.0037324454 0.003415724
0.00041988998 0.0033802358 0.007829261 -0.002216689 -0.020316897 0.07787273 -0.051604107 -0.100815386
-0.014450768 0.060410663 0.055639282 0.16057752 -0.056817424 -0.1412109 0.01932693 0.16937111
0.03130442 -0.06617434 -0.06735938 0.0026491908 0.001075729 0.0025047315 -0.009295088 -0.09021949
0.11063011 0.1620249 0.044182938 -0.05984368 -0.020341335 -0.12748314 0.1392247 0.2269074
-0.0057707136 -0.21512525 -0.0020823686 0.0047279582 0.0017690832 0.0069625974 -0.11908073 -0.1540035
0.27502912 -0.17313375 -0.08831899 0.0069758133 -0.0005106009 -0.0015022232 -0.054771114 -0.036961637
0.0068190745 -0.25459754 0.0025945168 0.26697564 0.006340059 0.00015697496 -0.002332109 -0.013347752
0.023151262 0.009963778 -0.20969868 0.29985887 -0.13364962 -0.017149897 -0.016874298 -0.01604087
00000000: 2864 503e 932c cbbd cd54 c3bd b897 07be
00000010: 8e49 39bd 0e96 19be 1737 c6bc 2747 8ebe
00000020: 059d 153e 055b d6bd fd5e 513d c797 cfbb
00000030: 8f11 253e d04a 253e b1db 22be a53e 88bd
00000040: 7a1f 05be 763e 053e a1ec 763c b4e6 093d
00000050: 9582 41bc 7752 983d 6a3c d23d 9bcc c83d
00000060: e6c4 c23d b275 ad3d 7629 f33d 07e4 8c3b
00000070: 961f 18bb ea28 023b 313b d1bc 22e3 9dbd
00000080: 0d6a b53d 9f78 133e 8eaa ab3d 5840 183e
00000090: 31f6 47bb bf5f 123d 087c 76bd 8815 8cbb
000000a0: 5d43 a73b 9727 52bb fda1 3b3e 6c3c 3cbc
000000b0: b58f 2c3e 3573 72be 7fc2 173e 7efa 453b
000000c0: 30a3 a8be ffc9 58be d15c 15be 818e 873e
000000d0: c2d0 04bf 6b25 7f3e 4dde 113e c0cf 38be
000000e0: 5bcc bbbe 7f78 b03e 51a5 22bd e4d6 03bf
000000f0: 7400 ac3d dae3 ab3d 6681 483d 39a7 bfbe
00000100: 5f2e 7cbe 678f 4fbe a4f3 b3be 089e 71be
00000110: 38dc 46be 4a3c a2bd 8b2a 5dbe 2448 81be
00000120: 4497 29ba 47df c5b9 7e66 92ba fce0 8e3e
00000130: bd82 0bbf 03af 853e 80cd 953e 17a0 11bf
00000140: f174 8a3e 9ce8 7b3e fcab cebd 1209 c9be
00000150: 8597 a6be f0b5 2dbe d8fd ddbd 79bc c9be
00000160: 39b1 d4be 93e4 c5be 4025 ae3e 4e53 773c
00000170: ba36 04bf 2cc1 433e e96e b23c 74ed 39bd
00000180: 6020 df3c 439f 813d c0ef 1b3c 8e60 acbb
00000190: ff19 353b 6fdc a0bb d6d4 133e 004d a7bc
000001a0: d0bd 27be 7250 ebba a148 bab9 6d6f 263c
000001b0: 6d24 e3bd b52e 87be a3d4 0cbe 511f 5a3e
000001c0: 23ee 113e d12e 8b3c d833 1e3a a164 19b9
000001d0: bb4c c13a c1fc 6a3b 49ad 87bb a0b5 883a
000001e0: f9c9 343a 8f28 17bb 2cef f8bb 60f2 283c
000001f0: ad4c 0f3c ae6c 853c 0b9c 743b 57da 5f3b
00000200: ae24 dc39 f286 5d3b 4d46 003c df45 11bb
00000210: 9f6f a6bc bd7b 9f3d d45e 53bd 4c78 cebd
00000220: eac2 6cbc 2c71 773d 04e6 633d 6f6e 243e
00000230: 63b9 68bd 9799 10be 8353 9e3c 9f6f 2d3e
00000240: 1039 003d 6a86 87bd b7f3 89bd 0c9e 2d3b
00000250: 7aff 8c3a 6c26 243b 6d4a 18bc ffc4 b8bd
00000260: 0a92 e23d dbe9 253e 2bf9 343d a61e 75bd
00000270: dfa2 a6bc f18a 02be eb90 0e3e 6a5a 683e
00000280: 4118 bdbb cb49 5cbe 5978 08bb fdec 9a3b
00000290: 95e0 e73a 8026 e43b 99e0 f3bd 18b3 1dbe
000002a0: 9ed0 8c3e f949 31be 96e0 b4bd 5d95 e43b
000002b0: d9d9 05ba 3fe6 c4ba ad57 60bd 1665 17bd
000002c0: 8b72 df3b 9c5a 82be c508 2a3b 08b1 883e
000002d0: 45c0 cf3b a599 2439 4cd6 18bb 88b0 5abc
000002e0: b7a7 bd3c 1d3f 233c 40bb 56be 1a87 993e
000002f0: 72db 08be f17d 8cbc f83b 8abc 2568 83bc

Conv1D_1.weight_u f4 [64]
0.17209162 0.0027265074 0.06783459 -0.07142813 0.05430415 -0.01389653 -0.004356243 -0.040489815
-0.028625185 0.002447213 -0.005177682 -0.014147887 0.0010559146 -0.0033387053 0.041449912 -0.18146546
-0.018610042 0.28319842 0.26267624 0.3427188 -0.012262198 -0.007218642 -0.0034605593 0.13658693
-0.00011484222 0.298111 0.31245214 0.28486118 -0.0471029 0.115651146 0.3164172 0.09626678
-0.018253814 -0.0022502178 0.12907566 -0.003840407 0.10746416 0.033443358 -8.8589404e-05 0.0032324991
0.0037065118 -0.003949335 -2.5921865e-05 -0.0012242587 -0.0286831 -0.060719635 -0.027616369 -0.12890956
0.065506615 1.8495906e-05 0.001947484 0.07675087 0.00450761 0.17817572 -0.0036498928 0.1042617
0.23736882 0.0040196935 -0.011749884 -0.20616037 0.0037356962 -0.019618763 -0.19441889 0.0042810286
00000000: c938 303e 34af 323b ddec 8a3d e948 92bd
00000010: 076e 5e3d 45ae 63bc d1be 8ebb a6d8 25bd
00000020: 5d7f eabc 6c61 203b 8ba9 a9bb 8acc 67bc
00000030: 9d66 8a3a 2ece 5abb 62c7 293d 15d2 39be
00000040: 1674 98bc 62ff 903e 807d 863e d778 af3e
00000050: 63e7 48bc 5c8a ecbb 8dca 62bb 72dd 0b3e
00000060: 73d7 f0b8 01a2 983e baf9 9f3e 53d9 913e
00000070: f8ee 40bd 82da ec3d 6f01 a23e 8427 c53d
00000080: 0689 95bc 6478 13bb 692c 043e 56af 7bbb
00000090: 2b16 dc3d e7fb 083d 13c9 b9b8 56d8 533b
000000a0: f3e8 723b 6c69 81bb c872 d9b7 4e77 a0ba
000000b0: d2f8 eabc 27b5 78bd b93b e2bc de00 04be
000000c0: 5528 863d a827 9b37 b842 ff3a 8f2f 9d3d
000000d0: 93b4 933b b273 363e 0a33 6fbb 2887 d53d
000000e0: d010 733e a2b7 833b 9682 40bc b41b 53be
000000f0: 95d2 743b 87b7 a0bc bf15 47be df47 8c3b

Conv1D_1.weight_v f4 [3]
0.66265935 -0.6168996 -0.42463794
00000000: 0ba4 293f 22ed 1dbf 256a d9be

Conv1D_2.bias f4 [4]
0.01972285 -0.13294667 0.029654425 0.02092058
00000000: d091 a13c 2c23 08be d6ed f23c a361 ab3c

Conv1D_2.weight_orig f4 [4, 16, 3]
0.12209514 -0.17658329 0.087169394 0.015508061 -0.008416907 0.14862242 -0.31048098 -0.024591565
-0.13253105 0.0464804 0.017190777 0.039073095 -0.014208755 -0.06963026 -0.2323855 0.059166092
-0.21031347 -0.018363412 0.016458705 0.036843635 -0.0135178035 -0.06381997 -0.04846152 -0.07034164
-0.011157492 -0.03237422 -0.13122627 -0.004382644 0.0076880557 0.00065209356 0.14706618 -0.053048957
-0.050513946 0.15006737 0.0005216664 0.08251156 0.045839775 -0.03156572 -0.08706918 -0.0069608632
-0.0028405637 0.0026914096 0.14980204 0.08401897 0.082033776 0.21337205 0.05960263 0.12294848
0.02479759 -0.03241609 -0.281825 -0.27304223 -0.95261526 -0.59599537 -0.28341594 -0.25939932
0.07897837 -0.66761565 -0.46528187 -0.059751004 -0.07523568 -0.11821021 -0.1341377 -0.024696056
-0.06398559 -0.2711481 -0.024866628 -0.061555702 -0.23746139 -0.12119309 -0.15425628 -0.011611724
0.0008473774 0.016805975 -0.024406273 -0.29070947 -0.9910784 -0.62836385 -0.30863476 -1.0352954
-0.66233134 -0.4499503 -0.35519367 0.032673668 0.05619636 0.018304227 -0.3112572 0.3483725
0.44834232 0.18041684 -0.6887101 -0.41632915 -0.077770315 0.10415811 0.019660244 0.26285675
-0.024518907 0.013772103 0.073750794 -0.036249254 -0.014634928 0.04302888 -0.017529808 0.27614662
0.482564 -0.0034283416 -0.056418862 0.089175604 -0.20406239 0.019756826 0.2112027 -0.20914738
-0.0015361633 0.2392974 -0.011081347 0.008963576 0.0023269986 0.04219871 -0.036649995 -0.0021642144
-0.0010595233 0.013327867 -0.021832582 -0.0999681 0.072844245 0.011352805 0.0047463304 -0.019603642
0.008539776 -0.07465494 -0.059993178 0.14269124 -0.16989243 0.050306212 0.109654605 -0.10427803
0.16484371 0.15689747 -0.1342285 -0.02074365 0.17198013 0.15964611 0.34754124 0.29010838
-0.060811993 0.031083386 0.080572285 -0.05743846 0.061673537 -0.0038801506 0.02600168 -0.1345178
0.09177282 -0.17336261 0.075201795 0.060201984 0.031217545 -0.18611223 0.12937222 -0.07046944
0.24402574 0.35263708 -0.019616341 -0.002364674 0.021768825 0.061108526 -0.008614081 0.15261362
-0.041172992 -0.30286285 0.3218446 -0.088249914 0.066530615 0.0048537655 -0.098942675 0.094655074
0.013186502 -0.16727953 0.15988311 0.45251927 -0.03559893 -0.00998049 0.040829446 -0.016490178
-0.0451538 0.0561612 -0.48349866 -0.40266898 -0.573347 0.029315906 0.043040223 -0.08007357
00000000: 040d fa3d 40d2 34be de85 b23d 8615 7e3c
00000010: 11e7 09bc 7a30 183e 5df7 9ebe 4074 c9bc
00000020: 38b6 07be 3b62 3e3d acd3 8c3c 1c0b 203d
00000030: d7cb 68bc 4f9a 8ebd 77f6 6dbe 2558 723d
00000040: 6a5c 57be de6e 96bc 68d4 863c 5ae9 163d
00000050: c779 5dbc 0bb4 82bd 967f 46bd 470f 90bd
00000060: eacd 36bc d59a 04bd 2e60 06be 489c 8fbb
00000070: 16ec fb3b 42f1 2a3a 8498 163e dd49 59bd
00000080: b6e7 4ebd 43ab 193e 71c0 083a d2fb a83d
00000090: 7dc2 3b3d 0e4b 01bd 5451 b2bd f417 e4bb
000000a0: c028 3abb 5c62 303b b565 193e 2312 ac3d
000000b0: 5301 a83d 347e 5a3e e321 743d 6acc fb3d
000000c0: 5124 cb3c bcc6 04bd 5e4b 90be 31cc 8bbe
000000d0: 98de 73bf 2793 18bf e51b 91be fdcf 84be
000000e0: 69bf a13d dce8 2abf 6d39 eebe 78bd 74bd
000000f0: 2a15 9abd 3218 f2bd 655b 09be 624f cabc
00000100: e10a 83bd ecd3 8abe 19b5 cbbc d521 7cbd
00000110: 1429 73be 1534 f8bd 5cf5 1dbe 1a3f 3ebc
00000120: 8922 5e3a afac 893c aaef c7bc dfd7 94be
00000130: 50b7 7dbf 74dc 20bf 6005 9ebe 8f84 84bf
00000140: 8c8e 29bf e35f e6be f2db b5be d3d4 053d
00000150: 282e 663d bff2 953c 1b5d 9fbe e15d b23e
00000160: 208d e53e 31bf 383e 4e4f 30bf 1829 d5be
00000170: 0b46 9fbd d950 d53d 850e a13c 2995 863e
00000180: e0db c8bc 63a4 613c a80a 973d 197a 14bd
00000190: 56c7 6fbc 0d3f 303d ac9a 8fbc 1763 8d3e
000001a0: a112 f73e 07ae 60bb 7717 67bd b3a1 b63d
000001b0: bbf5 50be 11d9 a13c 8545 583e bb2a 56be
000001c0: 1659 c9ba 610a 753e 8a8e 35bc f6db 123c
000001d0: 8f80 183b 8ed8 2c3d 4e1e 16bd 7ed5 0dbb
000001e0: b4df 8aba 205d 5a3c 3eda b2bc 13bc ccbd
000001f0: 5d2f 953d 1e01 3a3c 1b87 9b3b d197 a0bc
00000200: 6bea 0b3c b0e4 98bd 68bb 75bd a71d 123e
00000210: 48f8 2dbe e30d 4e3d 9892 e03d b88f d5bd
00000220: cacc 283e bba9 203e 3273 09be 96ee a9bc
00000230: 8f1b 303e 457a 233e edf0 b13e 1689 943e
00000240: ff15 79bd 96a2 fe3c 1503 a53d 9744 6bbd
00000250: 649d 7c3d 204a 7ebb 7a01 d53c 09bf 09be
00000260: 63f3 bb3d f885 31be 6603 9a3d 5b96 763d
00000270: f0bb ff3c 3494 3ebe 277a 043e 4852 90bd
00000280: e2e1 793e d98c b43e 73b2 a0bc a5f8 1abb
00000290: 8954 b23c ef4c 7a3d 1322 0dbc bf46 1c3e
000002a0: 03a5 28bd d710 9bbe d1c8 a43e 5fbc b4bd
000002b0: 3441 883d 560c 9f3b 75a2 cabd 85da c13d
000002c0: 330c 583c 534b 2bbe 66b8 233e 9bb0 e73e
000002d0: 2fd0 11bd 3685 23bc c73c 273d 6916 87bc
000002e0: 31f3 38bd 4909 663d 238d f7be a12a cebe
000002f0: dec6 12bf e927 f03c f24a 303d 9dfd a3bd

Conv1D_2.weight_u f4 [4]
-0.014238168 0.99778306 0.023039557 0.060790032
00000000: 3447 69bc b66e 7f3f 74bd bc3c f8fe 783d

Conv1D_2.weight_v f4 [48]
0.007029116 -0.010484134 -0.10381913 -0.104307055 -0.3562554 -0.224263 -0.10431892 -0.09796015
0.03662766 -0.25484768 -0.17353319 -0.02049623 -0.029212998 -0.048075136 -0.04428174 -0.013031343
-0.017413557 -0.09158411 -0.009990966 -0.023371365 -0.08858903 -0.04345777 -0.058224794 -0.0005460484
-0.0005859976 -0.00034278462 -0.0013126626 -0.11208705 -0.36990857 -0.23569249 -0.11896112 -0.38633457
-0.24799709 -0.17419265 -0.13022524 0.023397464 0.018547706 0.0071531693 -0.11453411 0.12949802
0.16868947 0.070371225 -0.27155438 -0.1661445 -0.04126338 0.040004663 0.011061753 0.09869436
00000000: 8054 e63b a5c5 2bbc 209f d4bd f09e d5bd
00000010: 1c67 b6be 33a5 65be 28a5 d5bd 559f c8bd
00000020: e306 163d 657b 82be afb2 31be b6e7 a7bc
00000030: 1950 efbc 6fea 44bd c560 35bd 6a81 55bc
00000040: e0a6 8ebc 7390 bbbd 26b1 23bc 4e75 bfbc
00000050: 2a6e b5bd c600 32bd 1f7d 6ebd b024 0fba
00000060: a29d 19ba c6b7 b3b9 a60d acba e58d e5bd
00000070: a864 bdbe 5f59 71be e3a1 f3bd a5cd c5be
00000080: f3f2 7dbe 8f5f 32be c459 05be 0aac bf3c
00000090: 5cf1 973c 2265 ea3b dc90 eabd 219b 043e
000000a0: efbc 2c3e ca1e 903d 2d09 8bbe c921 2abe
000000b0: ca03 29bd eedb 233d 5b3c 353c 4520 ca3d

GCN.bias f4 [64]
0.13673496 -0.12084089 0.087110415 -0.093097076 -0.09811753 -0.12441985 -0.13438769 -0.06546623
0.015793025 -0.33010048 -0.07845868 -0.09876426 -0.058427904 0.11646213 -0.07879924 0.10285137
-0.036012623 -0.013670136 -0.3107066 0.1342839 0.06535791 -0.009737608 0.052943725 -0.106080614
0.0050950404 0.0094157085 -0.083333425 -0.12600656 -0.0010497905 -0.13295181 -0.09719562 -0.17629468
-0.067649536 -0.07689478 -0.09592803 -0.10190219 -0.010258906 0.019330809 -0.11719086 -0.081042565
-0.10519602 -0.17456777 -0.06245195 -0.097088546 0.020649686 -0.101158604 0.11619196 -0.060963027
0.04749662 0.03192901 0.02460761 0.08356503 -0.058780476 -0.19303541 0.108094476 -0.11771452
0.039055914 -0.042279083 -0.12208 -0.10320112 -0.15484859 -0.2634473 0.06440711 0.03235508
00000000: 4004 0c3e 6e7b f7bd f266 b23d aea9 bebd
00000010: d8f1 c8bd d6cf febd ed9c 09be 2913 86bd
00000020: 6060 813c ee02 a9be f2ae a0bd eb44 cabd
00000030: 1952 6fbd b283 ee3d 7f61 a1bd bda3 d23d
00000040: f981 13bd b5f8 5fbc ef14 9fbe b881 093e
00000050: 5eda 853d 7d8a 1fbc 85db 583d cb40 d9bd
00000060: 4cf4 a63b 5844 1a3c b7aa aabd dd07 01be
00000070: 2099 89ba 8524 08be 7f0e c7bd 9886 34be
00000080: d78b 8abd 037b 9dbd ea75 c4bd 18b2 d0bd
00000090: f814 28bc a55b 9e3c c301 f0bd a5f9 a5bd
000000a0: 0371 d7bd e5c1 32be 9ecd 7fbd 5cd6 c6bd
000000b0: 8829 a93c 3e2c cfbd 0df6 ed3d 5eb4 79bd
000000c0: d18b 423d fec7 023d e695 c93c 2424 ab3d
000000d0: ccc3 70bd 13ab 45be a360 dd3d 4f14 f1bd
000000e0: 18f9 1f3d d52c 2dbd 1405 fabd 1c5b d3bd
000000f0: a190 1ebe 91e2 86be e0e7 833d c386 043d

GCN.lin.weight f4 [64, 236]
-0.031285122 0.16658315 -0.1374376 0.002883699 -0.25013623 -0.19967619 -0.23916732 -0.22974667
0.056048702 -0.02351264 0.0077121467 0.010890497 -0.03654629 -0.04960765 0.061331928 0.16839454
-0.0428556 -0.19118187 -0.31328514 -0.11739965 -0.012695274 0.035878684 -0.30334267 0.26821065
0.15675934 0.043663837 -0.080550164 0.11014768 -0.17309923 -0.04519197 0.027670419 0.058832053
0.095674545 -0.19690731 0.41727695 0.05071323 0.25671986 0.25139213 0.21514834 -0.018968659
0.10806962 -0.06797266 0.043916065 0.27265918 0.27826312 0.029088408 0.15827556 -0.03958277
0.022339903 0.08362822 0.13436426 -0.07723147 0.17907192 0.27815643 -0.12757961 0.0949407
0.0017593544 0.044878066 0.07695246 -0.0318523 0.16731071 0.11316554 0.24613804 -0.07249245
-0.058823183 0.08561383 -0.0064673848 0.040489916 -0.1176357 0.101480335 0.036425855 0.13685343
0.2405449 0.013158951 0.14667669 -0.15889551 -0.252396 -0.4215606 0.18778826 -0.0033028426
-0.30710632 0.05424013 0.31081703 -0.24463123 0.25432658 -0.17915168 0.0971239 -0.29702553
0.28852075 0.08842214 -0.073843345 0.060972307 -0.1208715 0.08679869 0.0849941 -0.03016573
-0.08278266 -0.13562982 -0.03229299 -0.3064656 -0.10094059 0.13246328 0.16779819 -0.024550702
0.057857852 -0.062161617 0.0041509797 -0.0050956495 -0.03515125 0.36337423 -0.3812285 0.016113944
-0.016648648 0.060871396 0.24490356 0.12961586 0.21960655 0.1309774 -0.062109563 -0.027421052
0.2926103 -0.094216265 0.15728708 -0.014662304 -0.31498197 0.13366556 0.3033918 -0.14081785
-0.009999941 -0.28724328 -0.051095437 0.14130436 -0.0132202795 -0.44831476 0.051543284 -0.105357364
0.08653209 -0.1665911 0.14976108 -0.057453312 -0.23116137 -0.22128414 0.26250485 0.053322837
-0.49826345 -0.32076433 -0.18384887 -0.45596394 0.059373487 0.025685374 -0.15203512 -0.28193402
-0.41459894 -0.16751869 -0.042058416 0.06599528 -0.038124956 -0.036304 0.0204018 0.037926573
-0.19129759 -0.13452394 0.41289073 0.023026817 -0.2336846 -0.14246523 -0.017715799 -0.05243592
0.10554585 -0.04529884 0.13938105 -0.07474715 -0.3100417 0.04337984 0.17433226 0.06755247
-0.17200322 -0.059513234 -0.30061096 -0.10101663 0.13820904 0.117120564 0.16181819 0.13274238
0.037672296 0.06531822 -0.17643864 -0.11363576 0.15823387 -0.13054188 0.50644594 0.007246628
0.0086676385 -0.064192876 0.28215197 0.17442152 -0.120711915 0.1179181 -0.027762974 0.13068627
-0.14139816 0.03608776 -0.22143331 0.18390635 0.14964424 -0.006875366 -0.15327519 -0.10884333
-0.14240398 0.12661701 -0.29126662 0.28183377 0.14599939 -0.48659423 0.405905 -0.046055112
-0.14247045 0.1065406 -0.05151726 -0.16509403 -0.35533652 -0.08184885 0.18198964 -0.09765827
0.06913858 -0.16435912 -0.09410688 0.08598223 0.10812573 0.026554085 -0.1086996 0.1651462
0.38926527 0.069067866 0.024636893 0.03364943 -0.061410863 0.17335655 0.09567711 -0.05590856
-0.06605948 -0.4039995 0.107091226 -0.18916158 -0.024667148 0.045334756 0.102494076 0.5159342
-0.031272974 0.04281972 -0.18797933 -0.005249403 -0.008871337 0.15821056 -0.030734668 0.015207672
00000000: d424 00bd c694 2a3e 71bc 0cbe 71fc 3c3b
00000010: db11 80be ea77 4cbe 47e8 74be b642 6bbe
00000020: 5393 653d 949d c0bc 2db6 fc3b 0e6e 323c
00000030: 90b1 15bd 6431 4bbd 3037 7b3d 9e6f 2c3e
00000040: 5b89 2fbd 2ec5 43be e966 a0be 3a6f f0bd
00000050: d7ff 4fbc 87f5 123d bb4f 9bbe e852 893e
00000060: 8585 203e dad8 323d 7cf7 a4bd 1b95 e13d
00000070: ed40 31be 371b 39bd 13ad e23c e1f9 703d
00000080: 04f1 c33d 12a2 49be 53a5 d53e adb8 4f3d
00000090: c970 833e 78b6 803e d94f 5c3e 2964 9bbc
000000a0: 9b53 dd3d 4035 8bbd 55e1 333d fc99 8b3e
000000b0: 8178 8e3e d04a ee3c fd12 223e 8b21 22bd
000000c0: 2c02 b73c 4645 ab3d c996 093e 882b 9ebd
000000d0: a15e 373e 856a 8e3e 3ba4 02be 4570 c23d
000000e0: 239a e63a 10d2 373d 4099 9d3d 8f77 02bd
000000f0: 8053 2b3e 56c3 e73d 9c0b 7c3e ec76 94bd
00000100: 94f0 70bd 4e56 af3d 5bec d3bb c1d8 253d
00000110: fcea f0bd ecd4 cf3d 4733 153d 4e23 0c3e
00000120: 6751 763e a498 573c 6a32 163e 81b5 22be
00000130: 0c3a 81be cad6 d7be 914b 403e 8174 58bb
00000140: 0a3d 9dbe e62a 5e3d 6923 9f3e 9c80 7abe
00000150: 1837 823e 8a73 37be e5e8 c63d bb13 98be
00000160: feb8 933e ab16 b53d 2e3b 97bd 19be 793d
00000170: 7a8b f7bd 83c3 b13d 6311 ae3d 1f1e f7bc
00000180: f589 a9bd 8be2 0abe a745 04bd 0fe9 9cbe
00000190: f1b9 cebd 74a4 073e 4ad3 2b3e 8e1e c9bc
000001a0: 5bfc 6c3d 2e9d 7ebd f104 883b 68f9 a6bb
000001b0: c2fa 0fbd 300c ba3e 6230 c3be 6401 843c
000001c0: bf62 88bc 4954 793d 00c8 7a3e 05ba 043e
000001d0: 8ae0 603e f11e 063e 9966 7ebd 1da2 e0bc
000001e0: 04d1 953e 75f4 c0bd dd0f 213e 293a 70bc
000001f0: 5145 a1be a0df 083e 2c56 9b3e 8e32 10be
00000200: cbd6 23bc 8d11 93be 7349 51bd 17b2 103e
00000210: df99 58bc 8389 e5be 0d1f 533d 9ac5 d7bd
00000220: bd37 b13d db96 2abe f85a 193e 2a54 6bbd
00000230: 91b5 6cbe 4f98 62be 0967 863e 0c69 5a3d
00000240: 631c ffbe 393b a4be e142 3cbe 1b74 e9be
00000250: 9d31 733d 226a d23c 18af 1bbe a859 90be
00000260: 5046 d4be 058a 2bbe 7245 2cbd 8928 873d
00000270: ea28 1cbd 81b3 14bd ad21 a73c e558 1b3d
00000280: 84e3 43be a5c0 09be 6a66 d33e bca2 bc3c
00000290: 044b 6fbe 68e2 11be b920 91bc 0cc7 56bd
000002a0: 6c28 d83d 478b 39bd e8b9 0e3e 0915 99bd
000002b0: c9bd 9ebe 0faf 313d 2884 323e f358 8a3d
000002c0: 9d21 30be 26c4 73bd aee9 99be cfe1 cebd
000002d0: ac86 0d3e e8dc ef3d abb3 253e 9eed 073e
000002e0: 444e 1a3d 8fc5 853d 55ac 34be deb9 e8bd
000002f0: 0f08 223e c5ac 05be 71a6 013f 1f75 ed3b
00000300: b602 0e3c 8e77 83bd 3976 903e 8e9b 323e
00000310: cf37 f7bd 0b7f f13d 2d6f e3bc 9fd2 053e
00000320: aeca 10be c2d0 133d 6abf 62be f251 3c3e
00000330: 573c 193e c04a e1bb 2cf4 1cbe 40e9 debd
00000340: 59d2 11be e4a7 013e e620 95be 844c 903e
00000350: dd80 153e e122 f9be c8d2 cf3e 49a4 3cbd
00000360: c6e3 11be f531 da3d c303 53bd 690e 29be
00000370: abee b5be 5fa0 a7bd 7e5b 3a3e 0f01 c8bd
00000380: 8798 8d3d c24d 28be 1cbb c0bd 7417 b03d
00000390: 0671 dd3d f487 d93c e59d debd 161c 293e
000003a0: c74d c73e 7473 8d3d 4fd3 c93c fcd3 093d
000003b0: f589 7bbd 6184 313e 5cf2 c33d 6000 65bd
000003c0: 314a 87bd 06d9 cebe a552 db3d 93b3 41be
000003d0: c212 cabc f0b0 393d 6ae8 d13d 4414 043f
000003e0: 1718 00bd bb63 2f3d a77d 40be 2f03 acbb
000003f0: 1659 11bc f301 223e 45c7 fbbc 9929 793c

normalize1.weight f4 [64]
1.0 1.0 1.0 1.0 1.0 1.0 1.0 1.0
1.0 1.0 1.0 1.0 1.0 1.0 1.0 1.0
1.0 1.0 1.0 1.0 1.0 1.0 1.0 1.0
1.0 1.0 1.0 1.0 1.0 1.0 1.0 1.0
1.0 1.0 1.0 1.0 1.0 1.0 1.0 1.0
1.0 1.0 1.0 1.0 1.0 1.0 1.0 1.0
1.0 1.0 1.0 1.0 1.0 1.0 1.0 1.0
1.0 1.0 1.0 1.0 1.0 1.0 1.0 1.0
00000000: 0000 803f 0000 803f 0000 803f 0000 803f
00000010: 0000 803f 0000 803f 0000 803f 0000 803f
00000020: 0000 803f 0000 803f 0000 803f 0000 803f
00000030: 0000 803f 0000 803f 0000 803f 0000 803f
00000040: 0000 803f 0000 803f 0000 803f 0000 803f
00000050: 0000 803f 0000 803f 0000 803f 0000 803f
00000060: 0000 803f 0000 803f 0000 803f 0000 803f
00000070: 0000 803f 0000 803f 0000 803f 0000 803f
00000080: 0000 803f 0000 803f 0000 803f 0000 803f
00000090: 0000 803f 0000 803f 0000 803f 0000 803f
000000a0: 0000 803f 0000 803f 0000 803f 0000 803f
000000b0: 0000 803f 0000 803f 0000 803f 0000 803f
000000c0: 0000 803f 0000 803f 0000 803f 0000 803f
000000d0: 0000 803f 0000 803f 0000 803f 0000 803f
000000e0: 0000 803f 0000 803f 0000 803f 0000 803f
000000f0: 0000 803f 0000 803f 0000 803f 0000 803f

normalize1.bias f4 [64]
0.0 0.0 0.0 0.0 0.0 0.0 0.0 0.0
0.0 0.0 0.0 0.0 0.0 0.0 0.0 0.0
0.0 0.0 0.0 0.0 0.0 0.0 0.0 0.0
0.0 0.0 0.0 0.0 0.0 0.0 0.0 0.0
0.0 0.0 0.0 0.0 0.0 0.0 0.0 0.0
0.0 0.0 0.0 0.0 0.0 0.0 0.0 0.0
0.0 0.0 0.0 0.0 0.0 0.0 0.0 0.0
0.0 0.0 0.0 0.0 0.0 0.0 0.0 0.0
00000000: 0000 0000 0000 0000 0000 0000 0000 0000
00000010: 0000 0000 0000 0000 0000 0000 0000 0000
00000020: 0000 0000 0000 0000 0000 0000 0000 0000
00000030: 0000 0000 0000 0000 0000 0000 0000 0000
00000040: 0000 0000 0000 0000 0000 0000 0000 0000
00000050: 0000 0000 0000 0000 0000 0000 0000 0000
00000060: 0000 0000 0000 0000 0000 0000 0000 0000
00000070: 0000 0000 0000 0000 0000 0000 0000 0000
00000080: 0000 0000 0000 0000 0000 0000 0000 0000
00000090: 0000 0000 0000 0000 0000 0000 0000 0000
000000a0: 0000 0000 0000 0000 0000 0000 0000 0000
000000b0: 0000 0000 0000 0000 0000 0000 0000 0000
000000c0: 0000 0000 0000 0000 0000 0000 0000 0000
000000d0: 0000 0000 0000 0000 0000 0000 0000 0000
000000e0: 0000 0000 0000 0000 0000 0000 0000 0000
000000f0: 0000 0000 0000 0000 0000 0000 0000 0000

normalize1.running_mean f4 [64]
0.0 0.0 0.0 0.0 0.0 0.0 0.0 0.0
0.0 0.0 0.0 0.0 0.0 0.0 0.0 0.0
0.0 0.0 0.0 0.0 0.0 0.0 0.0 0.0
0.0 0.0 0.0 0.0 0.0 0.0 0.0 0.0
0.0 0.0 0.0 0.0 0.0 0.0 0.0 0.0
0.0 0.0 0.0 0.0 0.0 0.0 0.0 0.0
0.0 0.0 0.0 0.0 0.0 0.0 0.0 0.0
0.0 0.0 0.0 0.0 0.0 0.0 0.0 0.0
00000000: 0000 0000 0000 0000 0000 0000 0000 0000
00000010: 0000 0000 0000 0000 0000 0000 0000 0000
00000020: 0000 0000 0000 0000 0000 0000 0000 0000
00000030: 0000 0000 0000 0000 0000 0000 0000 0000
00000040: 0000 0000 0000 0000 0000 0000 0000 0000
00000050: 0000 0000 0000 0000 0000 0000 0000 0000
00000060: 0000 0000 0000 0000 0000 0000 0000 0000
00000070: 0000 0000 0000 0000 0000 0000 0000 0000
00000080: 0000 0000 0000 0000 0000 0000 0000 0000
00000090: 0000 0000 0000 0000 0000 0000 0000 0000
000000a0: 0000 0000 0000 0000 0000 0000 0000 0000
000000b0: 0000 0000 0000 0000 0000 0000 0000 0000
000000c0: 0000 0000 0000 0000 0000 0000 0000 0000
000000d0: 0000 0000 0000 0000 0000 0000 0000 0000
000000e0: 0000 0000 0000 0000 0000 0000 0000 0000
000000f0: 0000 0000 0000 0000 0000 0000 0000 0000

normalize1.running_var f4 [64]
1.0 1.0 1.0 1.0 1.0 1.0 1.0 1.0
1.0 1.0 1.0 1.0 1.0 1.0 1.0 1.0
1.0 1.0 1.0 1.0 1.0 1.0 1.0 1.0
1.0 1.0 1.0 1.0 1.0 1.0 1.0 1.0
1.0 1.0 1.0 1.0 1.0 1.0 1.0 1.0
1.0 1.0 1.0 1.0 1.0 1.0 1.0 1.0
1.0 1.0 1.0 1.0 1.0 1.0 1.0 1.0
1.0 1.0 1.0 1.0 1.0 1.0 1.0 1.0
00000000: 0000 803f 0000 803f 0000 803f 0000 803f
00000010: 0000 803f 0000 803f 0000 803f 0000 803f
00000020: 0000 803f 0000 803f 0000 803f 0000 803f
00000030: 0000 803f 0000 803f 0000 803f 0000 803f
00000040: 0000 803f 0000 803f 0000 803f 0000 803f
00000050: 0000 803f 0000 803f 0000 803f 0000 803f
00000060: 0000 803f 0000 803f 0000 803f 0000 803f
00000070: 0000 803f 0000 803f 0000 803f 0000 803f
00000080: 0000 803f 0000 803f 0000 803f 0000 803f
00000090: 0000 803f 0000 803f 0000 803f 0000 803f
000000a0: 0000 803f 0000 803f 0000 803f 0000 803f
000000b0: 0000 803f 0000 803f 0000 803f 0000 803f
000000c0: 0000 803f 0000 803f 0000 803f 0000 803f
000000d0: 0000 803f 0000 803f 0000 803f 0000 803f
000000e0: 0000 803f 0000 803f 0000 803f 0000 803f
000000f0: 0000 803f 0000 803f 0000 803f 0000 803f

normalize2.weight f4 [4]
1.0 1.0 1.0 1.0
00000000: 0000 803f 0000 803f 0000 803f 0000 803f

normalize2.bias f4 [4]
0.0 0.0 0.0 0.0
00000000: 0000 0000 0000 0000 0000 0000 0000 0000

normalize2.running_mean f4 [4]
0.0 0.0 0.0 0.0
00000000: 0000 0000 0000 0000 0000 0000 0000 0000

normalize2.running_var f4 [4]
1.0 1.0 1.0 1.0
00000000: 0000 803f 0000 803f 0000 803f 0000 803f

normalize3.weight f4 [4]
1.0 1.0 1.0 1.0
00000000: 0000 803f 0000 803f 0000 803f 0000 803f

normalize3.bias f4 [4]
0.0 0.0 0.0 0.0
00000000: 0000 0000 0000 0000 0000 0000 0000 0000

normalize3.running_mean f4 [4]
0.0 0.0 0.0 0.0
00000000: 0000 0000 0000 0000 0000 0000 0000 0000

normalize3.running_var f4 [4]
1.0 1.0 1.0 1.0
00000000: 0000 803f 0000 803f 0000 803f 0000 803f

lin1.weight f4 [64, 240]
-0.18670513 -0.01317028 0.07482088 0.12966144 0.06948874 0.3082908 0.29523444 0.10367654
-0.00075785944 -0.07756553 0.06568925 0.1194102 0.06667119 0.010819825 0.10343797 0.016177963
0.10055045 0.039413743 0.10100029 0.069873944 0.017449738 0.32664403 -0.028081378 0.053187054
-0.07817827 -0.20377997 -0.13902983 0.041021243 -0.016442604 0.1272807 -0.0074771927 0.107833214
-0.07641914 0.1193727 -0.0035454936 -0.13555256 -0.008597468 0.1299058 -0.026528224 -0.03833
0.1023368 -0.012954302 -0.13431667 0.2028208 -0.00049844413 -0.12497542 -0.024992535 0.26276103
0.056861997 0.13556066 0.1410859 -0.42250234 -0.041333348 0.21688104 0.40752167 0.26027647
-0.16718604 0.07800423 -0.26438102 0.4113628 0.35236192 0.41713157 -0.04081193 -0.27114105
-0.04410772 -0.08845026 -0.009495947 -0.23452954 0.08749985 0.012794662 -0.0358613 -0.12940978
-0.04071864 -0.05560885 0.06910883 0.30356127 -0.013941674 -0.28627196 -0.07108192 -0.039360285
0.0950144 -0.1384191 -0.033938255 0.2838557 -0.10493767 -0.108759314 0.07331692 -0.23187384
0.29752997 0.16160935 0.030734709 0.29815683 0.26471555 0.41774854 0.06269141 -0.0064463536
-0.12185642 0.22233942 -0.00954142 0.089754574 -0.15884702 0.4769523 -0.036543045 0.18811673
-0.08927013 0.26318216 -0.40832603 -0.13044922 0.035142545 0.2522196 -0.12694238 -0.19331692
-0.046954904 -0.29478633 -0.46605974 0.094038375 -0.3665018 0.3113564 -0.105107665 0.306545
0.19283724 0.30843827 -0.53366107 -0.48266387 0.18847218 -0.2940572 0.034476563 0.23476502
0.28426343 -0.105130285 0.2456124 0.13891348 0.14440028 -0.20653412 -0.14533655 0.16265766
-0.03942297 0.1749454 -0.13964272 0.06996827 0.20652305 0.2917415 0.084664285 -0.010649359
0.21018814 0.21248797 -0.07720986 -0.055755697 -0.2996308 -0.13149191 0.07951661 0.014510524
-0.10700096 -0.12317657 0.26782602 -0.14728744 -0.15350188 -0.1586576 0.21734649 0.06939979
0.17701188 -0.05166548 0.063235424 -0.033809204 -0.20244601 0.23544234 0.19982387 0.1645085
-0.0380768 0.04238337 -0.060367987 0.29255134 -0.023719003 0.10789791 -0.04039224 -0.42277876
0.43008053 0.049629442 0.38312578 -0.23959346 -0.26986322 0.28575256 0.08018501 0.18396877
0.015920509 0.19525315 -0.051653665 -0.16222614 -0.10968479 -0.2122688 -0.057960216 -0.20211507
-0.04008679 -0.17220719 0.15344049 0.2931128 -0.347978 0.014081421 0.14957258 0.10346926
0.21971299 -0.13956773 -0.12266243 -0.013608756 0.071108624 -0.10777544 0.011775822 0.04724528
-0.08060699 -0.043096364 0.13876715 0.30419892 -0.19747943 -0.15018795 0.02701561 -0.17382227
-0.01118985 -0.042790744 0.17885286 -0.16218159 -0.10392308 -0.30091128 -0.094453014 -0.28020993
0.029203488 -0.044214167 -0.16568913 -0.07591882 -0.03896938 0.10679848 -0.028196773 -0.09301119
-0.15837651 -0.35273013 0.14184028 -0.10285774 0.2679309 0.25825274 -0.33641818 -0.3893135
-0.24659577 0.13436463 0.2996194 -0.073137514 -0.002467535 -0.036012735 -0.12572138 -0.2675783
0.37616715 0.21004057 0.3267132 -0.08126759 -0.09263452 0.000268807 -0.1305663 0.022294512
00000000: a12f 3fbe 28c8 57bc b13b 993d f8c5 043e
00000010: 1d50 8e3d 4bd8 9d3e f828 973e 5e54 d43d
00000020: 16ab 46ba adda 9ebd 1688 863d 568d f43d
00000030: e88a 883d a345 313c 49d7 d33d a687 843c
00000040: 65ed cd3d 4e70 213d 3dd9 ce3d 121a 8f3d
00000050: c1f2 8e3c e33d a73e eb0a e6bc abda 593d
00000060: ee1b a0bd b2ab 50be d65d 0ebe e405 283d
00000070: a4b2 86bc df55 023e 3d03 f5bb a9d7 dc3d
00000080: a381 9cbd ad79 f43d 835b 68bb 4ace 0abe
00000090: 65dc 0cbc 0706 053e b851 d9bc ebff 1cbd
000000a0: f595 d13d 483e 54bc 4f8a 09be 41b0 4f3e
000000b0: 05aa 02ba 1df3 ffbd 25bd ccbc 9d88 863e
000000c0: 20e8 683d 6ad0 0a3e d278 103e 3a52 d8be
000000d0: 284d 29bd 1016 5e3e aea6 d03e f542 853e
000000e0: d132 2bbe afc0 9f3d f35c 87be 259e d23e
000000f0: c868 b43e 4592 d53e 692a 27bd 00d3 8abe
00000100: 4caa 34bd 6925 b5bd e394 1bbc 8328 70be
00000110: 1f33 b33d b4a0 513c 4ce3 12bd ff83 04be
00000120: 97c8 26bd 1bc6 63bd ee88 8d3d 626c 9b3e
00000130: 9e6b 64bc 3d92 92be 6693 91bd 4038 21bd
00000140: e996 c23d bdbd 0dbe d702 0bbd 8955 913e
00000150: 90e9 d6bd 34bd debd 2e27 963d 5670 6dbe
00000160: d955 983e ec7c 253e 5bc7 fb3c 03a8 983e
00000170: cc88 873e 23e3 d53e 5b64 803d ef3b d3bb
00000180: dc8f f9bd f2ac 633e 9e53 1cbc 3fd1 b73d
00000190: cba8 22be 1833 f43e 29ae 15bd aca1 403e
000001a0: 42d3 b6bd d0bf 863e 1c10 d1be 7b94 05be
000001b0: a1f1 0f3d ed22 813e 2ffd 01be dff4 45be
000001c0: c953 40bd 3cee 96be 629f eebe 3197 c03d
000001d0: 20a6 bbbe 1b6a 9f3e b042 d7bd 77f3 9c3e
000001e0: 2077 453e 9feb 9d3e 039e 08bf b81f f7be
000001f0: dafe 403e aa8e 96be 4c37 0d3d 3e66 703e
00000200: fa8a 913e 8c4e d7bd d181 7b3e 563f 0e3e
00000210: abdd 133e ae7d 53be 1bd3 14be bb8f 263e
00000220: fb79 21bd e324 333e 80fe 0ebe 864b 8f3d
00000230: c77a 533e 245f 953e 7864 ad3d a67a 2ebc
00000240: 8f3b 573e 7296 593e 3420 9ebd 1660 64bd
00000250: 3569 99be d1a5 06be 9bd9 a23d 8dbd 6d3c
00000260: 5223 dbbd ff43 fcbd 7e20 893e 85d2 16be
00000270: 992f 1dbe 2377 22be 1490 5e3e 7a21 8e3d
00000280: 9a42 353e 2f9f 53bd 9381 813d 857b 0abd
00000290: 024e 4fbe cc17 713e a19e 4c3e eb74 283e
000002a0: 6bf6 1bbd 2f9a 2d3d 6c44 77bd 4ac9 953e
000002b0: 5b4e c2bc 94f9 dc3d 5572 25bd 7576 d8be
000002c0: 8433 dc3e 3e48 4b3d 1029 c43e fd57 75be
000002d0: 832b 8abe 294e 923e 0a38 a43d 4f62 3c3e
000002e0: ba6b 823c 71f0 473e cb92 53bd 9c1e 26be
000002f0: 6ba2 e0bd fe5c 59be b167 6dbd 41f7 4ebe
00000300: 0c32 24bd 1557 30be 811f 1d3e e212 963e
00000310: 2c2a b2be c3b5 663c 8e29 193e b1e7 d33d
00000320: 71fc 603e d8ea 0ebe 7136 fbbd 42f7 5ebc
00000330: 66a1 913d 5fb9 dcbd 61ef 403c 4484 413d
00000340: 4715 a5bd d085 30bd fa18 0e3e f6bf 9b3e
00000350: 0c38 4abe dfca 19be d74f dd3c 77fe 31be
00000360: a255 37bc 5945 2fbd 3425 373e ee12 26be
00000370: a0d5 d4bd 0b11 9abe 9570 c1bd ad77 8fbe
00000380: 273c ef3c ea19 35bd 69aa 29be 547b 9bbd
00000390: 5b9e 1fbd 29b9 da3d ebfc e6bc a77c bebd
000003a0: 742d 22be 0b99 b4be 943e 113e 14a7 d2bd
000003b0: 3d2e 893e b439 843e 013f acbe 1954 c7be
000003c0: 9a83 7cbe e296 093e b767 993e 1fc9 95bd
000003d0: 5eb6 21bb 1782 13bd 1bbd 00be 0600 89be
000003e0: fb98 c03e e014 573e f446 a73e 9f6f a6bd
000003f0: 2bb7 bdbd aaee 8c39 2cb3 05be fba2 b63c

lin1.bias f4 [64]
-0.4650626 -0.23693332 -0.49570864 -0.36186275 -0.41854948 -0.40421093 -0.3260855 -0.37876114
-0.48777148 -0.0054372195 -0.32255688 -0.42215317 -0.40067488 -0.49399024 -0.3524923 -0.4446037
-0.34440702 -0.4140588 -0.22408037 -0.33323282 -0.47924018 -0.3408031 -0.2535224 -0.45213553
-0.5296687 -0.3287759 -0.445987 -0.42520687 -0.3174872 -0.43364486 -0.428406 -0.19657107
-0.24787325 -0.3760001 -0.39049608 -0.26512122 -0.29684025 -0.428797 -0.334321 -0.36877015
-0.35348022 -0.22860722 -0.38363463 -0.42234913 -0.4534525 -0.42504776 -0.36056876 -0.4352137
-0.36421028 -0.38596937 -0.3781153 -0.26316306 -0.3159526 -0.42590776 -0.53760946 -0.42990315
-0.3735129 -0.3014177 -0.37540153 -0.44688094 -0.36037186 -0.18926722 -0.25616556 -0.39306125
00000000: af1c eebe a69e 72be 86cd fdbe 1346 b9be
00000010: 1e4c d6be bcf4 cebe aef4 a6be fbec c1be
00000020: 2fbd f9be b42a b2bb 2d26 a5be 7624 d8be
00000030: 4225 cdbe 4aec fcbe df79 b4be 19a3 e3be
00000040: 1e56 b0be 84ff d3be 5375 65be 7e9d aabe
00000050: f85e f5be be7d aebe b0cd 81be 4f7e e7be
00000060: 5e98 07bf 5155 a8be 6858 e4be b7b4 d9be
00000070: af8d a2be b306 debe 0858 dbbe ed49 49be
00000080: 7cd2 7dbe 1683 c0be 1aef c7be f8bd 87be
00000090: 72fb 97be 488b dbbe 1f2c abbe 71cf bcbe
000000a0: 5cfb b4be 0318 6abe c26b c4be 253e d8be
000000b0: ed2a e8be dc9f d9be 789c b8be 55d4 debe
000000c0: c579 babe c79d c5be 5498 c1be 4fbd 86be
000000d0: 8ac4 a1be 9510 dabe c6a0 09bf 441c dcbe
000000e0: 153d bfbe 6c53 9abe a134 c0be 94cd e4be
000000f0: a982 b8be 44cf 41be 2228 83be 533f c9be

graph_norm.weight f4 [64]
1.729023 1.4837892 1.7406769 1.8701199 1.7931683 1.6884158 1.7676079 1.3642267
1.491229 1.6749837 1.7366413 1.7826747 2.052951 1.6940184 1.728383 1.5746987
1.8166391 1.1827432 1.7115834 1.8117188 1.232603 1.3654749 1.778164 1.9903845
1.4942116 2.045738 2.0399668 1.6358007 1.9330044 1.5445782 1.6832439 1.5701842
1.374543 1.4715847 1.5301238 1.5585756 2.7104452 1.4776099 1.978011 1.5602611
1.4809927 1.9771886 1.6530474 1.6359528 1.6375456 1.9025397 1.6553483 1.3481259
1.6892651 1.7793996 1.6143097 1.483202 1.4216983 1.7905948 2.0037458 1.5852358
2.7187254 1.5728585 1.5900142 2.0115378 1.337171 1.7154894 1.6586636 1.7211919
00000000: a050 dd3f ceec bd3f 80ce de3f 1760 ef3f
00000010: 8a86 e53f 021e d83f fa40 e23f fb9e ae3f
00000020: 98e0 be3f de65 d63f 434a de3f af2e e43f
00000030: 8d63 0340 98d5 d83f a73b dd3f ba8f c93f
00000040: a187 e83f 2164 973f 2a15 db3f 67e6 e73f
00000050: efc5 9d3f e2c7 ae3f e19a e33f ebc4 fe3f
00000060: 5342 bf3f 5fed 0240 d18e 0240 eb61 d13f
00000070: b06c f73f bdb4 c53f 8974 d73f ccfb c83f
00000080: 06f1 af3f e35c bc3f 19db c33f 687f c73f
00000090: ef77 2d40 5222 bd3f 772f fd3f a3b6 c73f
000000a0: 2b91 bd3f 8414 fd3f 0f97 d33f e766 d13f
000000b0: 189b d13f 6c86 f33f 74e2 d33f 648f ac3f
000000c0: d739 d83f 5ec3 e33f b3a1 ce3f 90d9 bd3f
000000d0: 36fa b53f 3632 e53f 5f3d 0040 02e9 ca3f
000000e0: 99ff 2d40 6d53 c93f 9685 cb3f 09bd 0040
000000f0: 6b28 ab3f 2895 db3f 174f d43f 0450 dc3f

graph_norm.bias f4 [64]
-0.4650626 -0.23693332 -0.49570864 -0.36186275 -0.41854948 -0.40421093 -0.3260855 -0.37876114
-0.48777148 -0.0054372195 -0.32255688 -0.42215317 -0.40067488 -0.49399024 -0.3524923 -0.4446037
-0.34440702 -0.4140588 -0.22408037 -0.33323282 -0.47924018 -0.3408031 -0.2535224 -0.45213553
-0.5296687 -0.3287759 -0.445987 -0.42520687 -0.3174872 -0.43364486 -0.428406 -0.19657107
-0.24787325 -0.3760001 -0.39049608 -0.26512122 -0.29684025 -0.428797 -0.334321 -0.36877015
-0.35348022 -0.22860722 -0.38363463 -0.42234913 -0.4534525 -0.42504776 -0.36056876 -0.4352137
-0.36421028 -0.38596937 -0.3781153 -0.26316306 -0.3159526 -0.42590776 -0.53760946 -0.42990315
-0.3735129 -0.3014177 -0.37540153 -0.44688094 -0.36037186 -0.18926722 -0.25616556 -0.39306125
00000000: af1c eebe a69e 72be 86cd fdbe 1346 b9be
00000010: 1e4c d6be bcf4 cebe aef4 a6be fbec c1be
00000020: 2fbd f9be b42a b2bb 2d26 a5be 7624 d8be
00000030: 4225 cdbe 4aec fcbe df79 b4be 19a3 e3be
00000040: 1e56 b0be 84ff d3be 5375 65be 7e9d aabe
00000050: f85e f5be be7d aebe b0cd 81be 4f7e e7be
00000060: 5e98 07bf 5155 a8be 6858 e4be b7b4 d9be
00000070: af8d a2be b306 debe 0858 dbbe ed49 49be
00000080: 7cd2 7dbe 1683 c0be 1aef c7be f8bd 87be
00000090: 72fb 97be 488b dbbe 1f2c abbe 71cf bcbe
000000a0: 5cfb b4be 0318 6abe c26b c4be 253e d8be
000000b0: ed2a e8be dc9f d9be 789c b8be 55d4 debe
000000c0: c579 babe c79d c5be 5498 c1be 4fbd 86be
000000d0: 8ac4 a1be 9510 dabe c6a0 09bf 441c dcbe
000000e0: 153d bfbe 6c53 9abe a134 c0be 94cd e4be
000000f0: a982 b8be 44cf 41be 2228 83be 533f c9be

graph_norm.mean_scale f4 [64]
1.0734661 1.0413542 1.0627738 0.9157541 0.9075247 0.90892625 0.933672 0.90350837
0.9107253 0.9507186 0.9016674 0.9125378 0.9232343 1.0790222 0.9168544 1.0954703
1.0508065 1.0077064 0.9300931 1.0738283 1.0259353 0.92121017 0.917783 0.9221518
1.0409156 1.0468386 0.9214268 0.9122169 0.9831807 0.90195066 0.9048798 0.9288919
0.9163162 0.9156945 0.90455294 0.9217419 1.0256324 1.078624 0.89396155 0.9055122
0.9067016 0.9063389 0.92354035 0.95056266 0.8856682 0.90669733 1.0813446 0.96804404
0.91337615 0.91766864 1.0639417 1.0130588 0.8665179 0.9376683 1.08195 0.91431
1.0402256 0.89589906 0.93997085 0.914813 0.9469469 0.9385608 0.9168146 1.0425694
00000000: 5667 893f 184b 853f f908 883f dc6e 6a3f
00000010: 8a53 683f 64af 683f 2105 6f3f 534c 673f
00000020: 4b25 693f 4b62 733f add3 663f 149c 693f
00000030: 1559 6c3f 661d 8a3f f8b6 6a3f 5f38 8c3f
00000040: d480 863f 86fc 803f 951a 6e3f 3573 893f
00000050: d951 833f 6ed4 6b3f d4f3 6a3f 2412 6c3f
00000060: b93c 853f cffe 853f a0e2 6b3f 0c87 693f
00000070: bbb1 7b3f 3de6 663f 34a6 673f dccb 6d3f
00000080: b393 6a3f f46a 6a3f c890 673f 47f7 6b3f
00000090: ec47 833f 5a10 8a3f aada 643f a6cf 673f
000000a0: 991d 683f d305 683f 246d 6c3f 1358 733f
000000b0: 27bb 623f 511d 683f 8069 8a3f bcd1 773f
000000c0: 05d3 693f 55ec 6a3f 3e2f 883f e9ab 813f
000000d0: 1ed4 5d3f 080b 703f 567d 8a3f 3810 6a3f
000000e0: 1d26 853f a459 653f eea1 703f 2f31 6a3f
000000f0: 1d6b 723f 8545 703f 5db4 6a3f ea72 853f

output_layer.weight f4 [16, 64]
0.016744085 0.011976393 0.012115819 0.0056876815 -0.0032054337 0.011859675 0.02698445 -0.05846591
-0.013444826 0.0016983462 -0.015051156 0.0066217976 0.015835684 0.010477883 -0.023448667 0.002798015
-0.00037184625 -0.011228617 0.024349816 0.0006390864 0.0055530714 0.0043337587 -0.013302569 -0.006740785
0.00061750936 0.0055575566 0.014191897 0.032975834 0.035330277 0.04058434 -0.03416929 -0.015342168
0.013222706 -0.01625433 0.01842068 0.005287859 -0.009076859 0.0032943278 0.00094492146 -0.003711955
-0.016691022 0.009979134 -0.022790212 0.0075713783 -0.009464806 -0.0031110975 -0.0065409737 0.036399182
0.025939323 0.027296385 -0.0429614 0.0023773792 0.0060869223 -0.029112995 0.015723385 -0.0041069067
-0.037482966 -0.0036823144 0.01338754 0.025351312 -0.0007298684 0.03554453 0.004441611 -0.0046757497
-0.037643585 -0.037495937 0.023720661 0.012138394 0.00067587226 -0.035997324 0.047429666 -0.006484466
-0.003147989 -0.0018944839 0.025899053 -0.07147899 -0.013046577 -0.03476762 -0.0025660405 -0.00319936
0.0015419213 -0.014539388 -0.048395503 0.003764607 0.007061674 -0.029434184 -0.0041528353 -0.02324403
0.014423861 -0.0031205246 0.0003650311 -0.01106883 0.0016588662 0.035016652 0.013613563 -0.0067184013
-0.0051295278 0.004812972 0.019884178 -0.025967319 0.005066913 0.01702004 0.034788616 -0.0010954703
0.008133194 -0.010349026 -0.0057594525 -0.006950352 -0.027375562 -0.040406384 -0.016854115 0.033137977
0.0069317822 0.016675813 -0.035306346 -0.019364813 0.014289312 -0.02305964 -0.027173419 -0.020377137
0.022975082 -0.02032999 0.015411688 -0.0026419822 0.0053822123 -0.026561184 0.038446672 -0.017458703
0.045903686 -0.021978516 0.001963753 -0.017413223 -0.021452269 -0.033813726 -0.012785811 0.01957364
-0.01023913 0.03016657 -0.023876717 -0.0038474065 -0.022541868 0.0010524527 -0.016110802 0.0010233036
-0.0023026047 0.0017883331 -0.03502504 0.046489466 0.03679832 0.0018224227 0.01866966 0.0013432167
-0.012388439 0.009470555 -0.004315432 0.0044310847 -0.003319811 -0.017794704 -0.019666707 -0.0071612354
0.017045548 -0.031081727 -0.011252514 0.0067284326 -0.022635803 0.018176967 0.016010305 0.015958816
0.038779777 -0.013368117 0.014925308 -0.016968088 0.019741189 0.018503202 0.015078315 0.010241206
-0.00024169873 -0.027919635 0.023951523 -0.015154094 0.0017571546 0.0009255992 -0.005655065 -0.05168736
-0.0085131135 -0.013377537 -0.032980874 0.016550247 -0.009068777 0.0060692416 0.00306181 0.02604467
-0.0290603 -0.0107474085 -0.0004915437 0.023572456 0.009272057 -0.03668484 0.01969344 0.038923655
0.016874634 -0.00034350774 -0.004139451 0.006736379 -0.020843161 0.007008033 -0.019765433 -0.004057987
-0.023537941 0.0021688116 0.029703705 -0.012683572 0.030327264 -0.032753132 -0.012195054 0.00487829
0.055110652 -0.004496033 0.005816471 0.012108506 -0.032140408 0.012392945 -0.013927853 -0.013287804
0.0161148 0.02351689 0.005330569 -0.02150757 -0.019891288 0.030967891 -0.008049414 0.008127381
-0.009718804 -0.00024068452 0.009208649 -0.023880009 0.012220285 -0.003721525 0.003786905 -0.038328018
-0.018296927 0.011275244 -0.020972878 0.0021981641 -0.010422823 0.020918082 -0.000108612934 -0.034347314
0.03320254 -0.00389256 0.013996001 0.0016023301 -0.027383544 0.014670042 0.027974347 0.0029285513
00000000: e42a 893c a238 443c 6e81 463c bb5f ba3b
00000010: 4112 52bb 154f 423c 7e0e dd3c f379 6fbd
00000020: b047 5cbc 0b9b de3a 2099 76bc aafb d83b
00000030: d6b9 813c 6dab 2b3c 6b17 c0bc e75e 373b
00000040: 5cf4 c2b9 3cf8 37bc 4479 c73c 5d88 273a
00000050: 8af6 b53b 3402 8e3b 05f3 59bc cee1 dcbb
00000060: 5ae0 213a 2a1c b63b 2185 683c ab11 073d
00000070: 7bb6 103d c43b 263d 19f5 0bbd b75d 7bbc
00000080: 0ca4 583c cd27 85bc f7e6 963c c745 ad3b
00000090: 1bb7 14bc a6e5 573b 9bb4 773a 4544 73bb
000000a0: 9cbb 88bc 867f 233c 8ab2 babc 5319 f83b
000000b0: 4612 1bbc 8ee3 4bbb aa55 d6bb 4f17 153d
000000c0: b47e d43c ab9c df3c 4bf8 2fbd cecd 1b3b
000000d0: ce74 c73b 607e eebc 54ce 803c 3b93 86bb
000000e0: bd87 19bd fc52 71bb 6a57 5b3c 8ead cf3c
000000f0: a454 3fba 2497 113d ef8a 913b 0837 99bb
00000100: 2930 1abd 5795 19bd d551 c23c 1de0 463c
00000110: 052d 313a ee71 13bd 9c45 423d a57b d4bb
00000120: 7e4e 4ebb 5550 f8ba 402a d43c 9463 92bd
00000130: 4fc1 55bc 7e68 0ebd 042b 28bb 5bac 51bb
00000140: 4b1a ca3a 9d36 6ebc 5d3a 46bd a0b7 763b
00000150: 9d65 e73b f51f f1bc 8214 88bb 446a bebc
00000160: 0f52 6c3c b781 4cbb a561 bf39 0a5a 35bc
00000170: 506e d93a 9f6d 0f3d 6c0b 5f3c 0926 dcbb
00000180: 9915 a8bb 23b6 9d3b 25e4 a23c 6ab9 d4bc
00000190: 5908 a63b 9c6d 8b3c 827e 0e3d e295 8fba
000001a0: 1741 053c f68e 29bc cab9 bcbb c7bf e3bb
000001b0: b742 e0bc 2a81 25bd a411 8abc b0bb 073d
000001c0: 0124 e33b b79b 883c 639d 10bd f5a2 9ebc
000001d0: b81d 6a3c 92e7 bcbc ca9a debc f4ed a6bc
000001e0: 3d36 bc3c 148b a6bc 4e81 7c3c 1b25 2dbb
000001f0: 455d b03b d796 d9bc 427a 1d3d 8e05 8fbc
00000200: 8105 3c3d 4a0c b4bc 4fb2 003b 2da6 8ebc
00000210: abbc afbc 4380 0abd 947b 51bc e658 a03c
00000220: 06c2 27bc e21f f73c 1b99 c3bc c524 7cbb
00000230: b9a9 b8bc 74f2 893a cdfa 83bc 5f20 863a
00000240: 4ce7 16bb 8066 ea3a 6b76 0fbd bd6b 3e3d
00000250: d6b9 163d 5cde ee3a 1df1 983c e00e b03a
00000260: e1f8 4abc 632a 1b3c 7868 8dbb a232 913b
00000270: 3091 59bb 33c6 91bc 131c a1bc cca8 eabb
00000280: 1ba3 8b3c 1b9f febc 775c 38bc 2f7a dc3b
00000290: b86e b9bc dde7 943c 0b28 833c 10bc 823c
000002a0: 8bd7 1e3d f205 5bbc 4789 743c a900 8bbc
000002b0: 46b8 a13c 0794 973c 090b 773c bbca 273c
000002c0: 8270 7db9 b8b7 e4bc fc35 c43c e148 78bc
000002d0: 5350 e63a e9a3 723a 204e b9bb 20b6 53bd
000002e0: 967a 0bbc 752d 5bbc f416 07bd 6294 873c
000002f0: 3595 14bc 7de0 c63b a6a8 483b a25b d53c
00000300: de0f eebc e615 30bc f0da 00ba 061b c13c
00000310: d3e9 173c d842 16bd 2354 a13c 696e 1f3d
00000320: ac3c 8a3c d418 b4b9 3ba4 87bb d8bc dc3b
00000330: 47bf aabc a4a3 e53b 1eeb a1bc ddf8 84bb
00000340: a4d2 c0bc 9f22 0e3b 2f55 f33c c2ce 4fbc
00000350: e270 f83c 2628 06bd c4cd 47bc 10da 9f3b
00000360: b5bb 613d 7553 93bb 1898 be3b c162 463c
00000370: a9a5 03bd c70b 4b3c a631 64bc 17b5 59bc
00000380: 2f03 843c 7ea6 c03c 0eac ae3b a530 b0bc
00000390: 0ef3 a2bc 60b0 fd3c b0e1 03bc b528 053c
000003a0: 9e3b 1fbc 4260 7cb9 e0df 163c 02a0 c3bc
000003b0: 9737 483c d4e4 73bb b92d 783b d7fd 1cbd
000003c0: 70e3 95bc cdbb 383c 50cf abbc 130f 103b
000003d0: 7dc4 2abc 665c ab3c 20c7 e3b8 c5af 0cbd
000003e0: 63ff 073d 521a 7fbb 7c4f 653c 4705 d23a
000003f0: 7453 e0bc 9e5a 703c 752a e53c f0ec 3f3b

output_layer.bias f4 [16]
0.0 0.0 0.0 0.0 0.0 0.0 0.0 0.0
0.0 0.0 0.0 0.0 0.0 0.0 0.0 0.0
00000000: 0000 0000 0000 0000 0000 0000 0000 0000
00000010: 0000 0000 0000 0000 0000 0000 0000 0000
00000020: 0000 0000 0000 0000 0000 0000 0000 0000
00000030: 0000 0000 0000 0000 0000 0000 0000 0000
