pretrained_model/model/linear_50epoch.pth (torch, 9347 bytes, 2 tensors)

weight f4 [16, 128]
00000000: 3c38 12be 70f6 15bf 2f11 12bf 9357 153d
00000010: 91fa 833e 9807 93be f527 e8be 82ed 55be
00000020: 7dfa eb3e e334 61bf 3fec b83e 962a abbe
00000030: 210b 52be 4fa2 15bf 6fb7 7e3e 4b4d ebbd
00000040: e4ea 20bf 46ec 48be 31da 5fbf 3ae4 3d3e
00000050: b271 73bb ee1b 853e 754a 173f e921 e73e
00000060: 4e39 8abe 404f 05bf 58c3 2abf 2760 653e
00000070: 0780 80be 1dc3 45bf e269 04bf f007 e6bd
00000080: 8434 56bf 25cf 043f f73e 05be a0b0 593e
00000090: 9cc1 a8bd 9488 a9be b770 2d3e c323 b7be
000000a0: 0ba6 523d 01df e43e 0a74 b1be 3b96 19bf
000000b0: 1253 0e3f a8bd 983e ef92 3cbe f0e2 1bbf
000000c0: 1e5d 443e 1486 023f 1847 07bf 886d 22be
000000d0: f190 a13e 363e 7dbf 8c83 d9be b078 da3e
000000e0: b2bf 3a3e dbca cf3e cca4 f3be 3d66 09bf
000000f0: 072d 97bd 9ca2 a6be c682 a5bd c171 4dbf
00000100: 4ab6 b4bc aeaf c9bf 1af7 9a3e 1dcb d03e
00000110: c31b 7ebf aa97 d83e 61df a8bf 3011 54bd
00000120: c82d b3bf 58de 12bf d0d9 303f 5d84 023e
00000130: 6ebf 1f3f 1056 c83e 8701 82be 99da b0bf
00000140: 7433 143f e22b d4be 042e 2f3f 409f 213f
00000150: 4a9d 083f 0202 5dbe 8a54 143f 963f 723e
00000160: 9c6c 353f 53d2 26bf 5345 2c3f 3f93 993c
00000170: 87ae cb3e fcfa 2bbf 3a89 0dbf eb63 42bf
00000180: 3afe 7d3f 9e7e e5bf 34f7 5dbf f2cd c7bf
00000190: fb28 213e 22d5 863c ec31 863f 9c68 24be
000001a0: f1a5 803e 4f68 2c3f 442b d1bd cd4f c43d
000001b0: 3ee9 ea3e d9ff 1cbe 0dc7 823e 8f41 ddbf
000001c0: 260d a73c a393 423f 7001 c43f c269 953e
000001d0: 33bf a13e 944d d5bd 6d94 663e b539 e0bf
000001e0: 3c79 17bf c707 03be 1872 68bf 592c 4dbf
000001f0: 58b2 3f3f f3d3 3f3f 651f 343f a5c6 89bf
00000200: a85e c9be 07fd 363e da25 1f3d e331 95be
00000210: b098 71be d345 e63d 6b8b d03e 7f6b 923e
00000220: 8049 703e 1e9c c43e 46b3 bdbe a5f2 713e
00000230: edc9 073d ab32 073e 393d 80be b69b 23bf
00000240: 2ada b7bd 1580 b63e 00fe 243e 307f 77bd
00000250: 1507 10be 71cd 813e 6797 24bd ec1a a73d
00000260: f7db 12bf 4b57 2cbe f433 c93d 422a 56be
00000270: e5b0 a43e 4f60 1ebe 8970 9fbe 65a3 fbbd
00000280: ea1c e8bd 74c9 4ebd 5213 5ebe 7af0 4b3e
00000290: ebd1 50bd bf0c debe 4501 f53e 64cf 573e
000002a0: 9c43 70be d82e fdbe c86e 223f b011 803d
000002b0: 19f0 913e fb74 20be ad0f 783d 8aa1 c4be
000002c0: 3542 2b3d c316 16be 6da1 febe a469 53be
000002d0: 17a4 20bf 5743 8a3e 523a fbbe 1ce6 1cbf
000002e0: 6be2 a6be c782 9ebd ca08 90be 4e15 ed3e
000002f0: 183a 263e 224f 993e 8526 8c3e fba5 aabe
00000300: a597 12bf 5b2e a93e cb30 4b3e e19b 363d
00000310: d2ef 6a3e 4332 d63c ffc9 fb3e 5e84 aebe
00000320: 2d87 6abf 26c0 bebe 5dee 9abd 455a c63e
00000330: 0306 3d3f 3072 d53a 856e febe 5501 41bf
00000340: d48a c2be f6ef 24bc bcf5 413f ec01 8cbf
00000350: e97a 1bbf 4c2e 44be f1e8 573f cc84 dd3e
00000360: 0d54 d3bf 8436 7cbe 7018 b93e ce0b c1be
00000370: 6a99 27be 0263 5e3d e339 923f 082d 21be
00000380: 2a38 f3be d390 87bf 29cd 353f df79 023f
00000390: 05a4 e5bd 6448 573e 52d5 dfbe 3b98 81be
000003a0: 9b24 dcbd 2205 d23e cb26 603f 6ca1 863f
000003b0: 253e 61bf c91f 163f f975 f73e 76ef be3e
000003c0: 65e9 8fbf d512 273e d7b5 dfbe 436d 6abe
000003d0: 98c2 953e bc14 03be f886 133f e933 f93d
000003e0: 8afe 61bf 2dab b5be c47d bfbe 34ad 63bf
000003f0: 8631 a9bf 18be e53d dfe2 9bbe 36b2 a8be
-0.14279264 -0.5857916 -0.5705747 0.03646047 0.25777104 -0.2871673 -0.45342985 -0.20891383
0.46089545 -0.87971324 0.3611774 -0.33430928 -0.20512058 -0.5845079 0.24874662 -0.11489352
-0.62858415 -0.19621381 -0.8744231 0.18544093 -0.0037146625 0.2599787 0.5909799 0.4514306
-0.26996845 -0.5207405 -0.6670432 0.2239996 -0.25097677 -0.77250844 -0.51724064 -0.11231983
-0.8367388 0.5187858 -0.130123 0.21258783 -0.08240053 -0.33112013 0.16937529 -0.35769472
0.051427882 0.44701388 -0.34658843 -0.5999486 0.55595505 0.29832196 -0.18415426 -0.60893154
0.19176146 0.50985837 -0.52842855 -0.15862095 0.31555894 -0.9892305 -0.42483175 0.42670202
0.18237188 0.40584454 -0.47586668 -0.5367163 -0.07381635 -0.32545936 -0.08081584 -0.802517
-0.022059578 -1.5756738 0.3026665 0.40779963 -0.9926111 0.4230321 -1.319317 -0.051774204
-1.3998346 -0.5737052 0.69082355 0.12745805 0.62401474 0.3912816 -0.2539179 -1.3816711
0.5789101 -0.4143973 0.6842959 0.6313362 0.53365004 -0.21582797 0.57941496 0.23657069
0.7086885 -0.6516468 0.6729328 0.01874697 0.3978159 -0.67179847 -0.55287516 -0.7593371
0.99216044 -1.7929265 -0.8670533 -1.5609725 0.15738289 0.016459052 1.0483985 -0.1605553
0.25126603 0.6734666 -0.102133304 0.09585533 0.45881075 -0.15331973 0.2554249 -1.7285632
0.020392012 0.76006526 1.5312939 0.2918225 0.31591186 -0.104151875 0.22517557 -1.7517611
-0.59169364 -0.12795936 -0.90799093 -0.80145794 0.74881506 0.74932784 0.70360404 -1.0763747
-0.3933003 0.1786996 0.038854457 -0.29139623 -0.23593402 0.11243787 0.40731367 0.28597638
0.23465538 0.38400358 -0.37050837 0.23627718 0.033151556 0.13202922 -0.2504671 -0.6390947
-0.08977158 0.35644594 0.16112518 -0.06042403 -0.14065202 0.25352052 -0.04018345 0.08159432
-0.5736689 -0.16830175 0.098243624 -0.20914558 0.3216621 -0.15466426 -0.31140545 -0.122870244
-0.1133364 -0.05048509 -0.21687058 0.19915953 -0.050981443 -0.433691 0.4785253 0.21075207
-0.23463291 -0.494498 0.6345029 0.062533736 0.28503492 -0.15669625 0.060561825 -0.38404495
0.041811187 -0.1465712 -0.49732533 -0.20645767 -0.6275038 0.270045 -0.49067932 -0.6128862
-0.32594618 -0.077397875 -0.28131706 0.46305317 0.16233099 0.29943186 0.27373138 -0.33329758
-0.5726264 0.3304318 0.19842832 0.04458225 0.22943047 0.026147014 0.49177548 -0.34085363
-0.9161251 -0.37255973 -0.075649954 0.38740745 0.738373 0.0016284641 -0.49693695 -0.7539266
-0.37996542 -0.010066977 0.75765586 -1.0938087 -0.6073442 -0.19158286 0.84339815 0.43265378
-1.6510025 -0.24630171 0.36151457 -0.3770432 -0.16367117 0.05429364 1.1423916 -0.15739834
-0.47503787 -1.0591072 0.71016175 0.5096721 -0.11212925 0.21023709 -0.43717438 -0.25311455
-0.107491694 0.4101954 0.87559193 1.0518012 -0.8798545 0.5864225 0.48332193 0.3729207
-1.1243101 0.16315778 -0.4369342 -0.22893243 0.29250026 -0.12800878 0.5762782 0.12168104
-0.8827902 -0.3548216 -0.3740064 -0.8893616 -1.3218238 0.11217898 -0.30446526 -0.32948464

bias f4 [16]
00000000: 2fe5 a6bd e7c6 4c3e 8a8c acbc 34b4 813e
00000010: 3191 e83d 5b66 113d f2f8 3cbe bdc9 1fbe
00000020: daf4 8cbb f1fd 613c cdbd 803d 4009 633d
00000030: 0049 953d ed3d 2fbd 9596 a13d 5198 0fbe
-0.08149182 0.1999775 -0.021063108 0.25332797 0.11355818 0.035498004 -0.1845434 -0.15604301
-0.0043016495 0.0137934545 0.062862016 0.055428743 0.07289314 -0.042783666 0.07890049 -0.14022948
